…
CNN_filters': [200], 'CNN_filtersize': [13], 'use_CNNpool': True, 'CNN_poolsize': 6, 'CNN_padding': 6, 'get_CNNout': True, 'get_seqs': True, 'get_pattn': True, 'batch_size': 64, 'num_epochs': 100, 'relativeAttn': False, 'Learnable_relativeAttn': False, 'mixed_attn': False, 'mixed_attn_config': '0.25', 'sqrt_dist': False, 'num_attnlayers': 1, 'entropy_loss': False, 'entropy_reg_value': '0.01', 'residual_connection': False, 'multiple_linear': False, 'exp_name': 'arabidopsis', 'cnn_attention_block': False, 'linear_layer_size': 512, 'sei': True}
600 100
AttentionNet(
  (layer1): Sequential(
    (0): Conv1d(4, 200, kernel_size=(13,), stride=(1,), padding=(6,), bias=False)
    (1): BatchNorm1d(200, eps=1e-05, momentum=0.1, affine=True, track_running_stats=True)
    (2): ReLU()
    (3): MaxPool1d(kernel_size=6, stride=6, padding=0, dilation=1, ceil_mode=False)
  )
  (dropout1): Dropout(p=0.2, inplace=False)
  (Q): ModuleList(
    (0): ModuleList(
      (0-7): 8 x Linear(in_features=200, out_features=32, bias=True)
    )
  )
  (K): ModuleList(
    (0): ModuleList(
      (0-7): 8 x Linear(in_features=200, out_features=32, bias=True)
    )
  )
  (V): ModuleList(
    (0): ModuleList(
      (0-7): 8 x Linear(in_features=200, out_features=32, bias=True)
    )
  )
  (RELU): ModuleList(
    (0-7): 8 x ReLU()
  )
  (MultiHeadLinearDropout): ModuleList(
    (0): Dropout(p=0.2, inplace=False)
  )
  (MultiHeadLinear): ModuleList(
    (0): Linear(in_features=256, out_features=1024, bias=True)
  )
  (sei_light): Sei_light(
    (lconv1): Sequential(
      (0): Conv1d(100, 480, kernel_size=(9,), stride=(1,), padding=(4,))
      (1): Conv1d(480, 480, kernel_size=(9,), stride=(1,), padding=(4,))
    )
    (conv1): Sequential(
      (0): Conv1d(480, 480, kernel_size=(9,), stride=(1,), padding=(4,))
      (1): ReLU(inplace=True)
      (2): Conv1d(480, 480, kernel_size=(9,), stride=(1,), padding=(4,))
      (3): ReLU(inplace=True)
    )
    (dconv1): Sequential(
      (0): Dropout(p=0.4, inplace=False)
      (1): Conv1d(480, 480, kernel_size=(5,), stride=(1,), padding=(4,), dilation=(2,))
      (2): ReLU(inplace=True)
    )
    (dconv2): Sequential(
      (0): Dropout(p=0.4, inplace=False)
      (1): Conv1d(480, 480, kernel_size=(5,), stride=(1,), padding=(8,), dilation=(4,))
      (2): ReLU(inplace=True)
    )
  )
  (fc3): Linear(in_features=1024, out_features=36, bias=True)
  (MHReLU): ModuleList(
    (0): ReLU()
  )
)
█ |----------------------------------------| 0.00% [0/100 00:00<?]Train Results (Loss and AUC):  0.5097954172600982 0.7418723742307676
Best Validation Loss: 0.477 and AUC: 0.78 

Epoch-1 lr: 0.001 valid_loss: 0.47656347044618613
 |----------------------------------------| 1.00% [1/100 02:29<4:06:42]Train Results (Loss and AUC):  0.48065956763682827 0.7821385381262362
…
