…
            output = spline_out.view(
                spline_out.size(0), 480 * self._spline_df)
        elif self.readout_strategy == 'attention_pool':
            output = self.attention_pool(output)
        else:
            pass
            #

        output = self.fc3(output)
        output = torch.nan_to_num(output)
        assert not torch.isnan(output).any()
        if self.genPAttn:
            return output, pAttn_concat  # , RPE1_output
        else:
            return output


---------------------------Architecture-----------------------------------

AttentionNet(
  (layer1): Sequential(
    (0): Conv1d(4, 200, kernel_size=(13,), stride=(1,), padding=(6,), bias=False)
    (1): BatchNorm1d(200, eps=1e-05, momentum=0.1, affine=True, track_running_stats=True)
    (2): ReLU()
    (3): MaxPool1d(kernel_size=6, stride=6, padding=0, dilation=1, ceil_mode=False)
  )
  (dropout1): Dropout(p=0.2, inplace=False)
  (Q): ModuleList(
    (0): ModuleList(
      (0-7): 8 x Linear(in_features=200, out_features=32, bias=True)
    )
  )
  (K): ModuleList(
    (0): ModuleList(
      (0-7): 8 x Linear(in_features=200, out_features=32, bias=True)
    )
  )
  (V): ModuleList(
    (0): ModuleList(
      (0-7): 8 x Linear(in_features=200, out_features=32, bias=True)
    )
  )
  (RELU): ModuleList(
    (0-7): 8 x ReLU()
  )
  (MultiHeadLinearDropout): ModuleList(
    (0): Dropout(p=0.2, inplace=False)
  )
  (MultiHeadLinear): ModuleList(
    (0): Linear(in_features=256, out_features=512, bias=True)
  )
  (fc3): Linear(in_features=7680, out_features=36, bias=True)
  (MHReLU): ModuleList(
    (0): ReLU()
  )
  (sei_light): Sei_light(
    (lconv1): Sequential(
      (0): Conv1d(100, 480, kernel_size=(9,), stride=(1,), padding=(4,))
      (1): Conv1d(480, 480, kernel_size=(9,), stride=(1,), padding=(4,))
    )
    (conv1): Sequential(
      (0): Conv1d(480, 480, kernel_size=(9,), stride=(1,), padding=(4,))
      (1): ReLU(inplace=True)
      (2): Conv1d(480, 480, kernel_size=(9,), stride=(1,), padding=(4,))
      (3): ReLU(inplace=True)
    )
    (dconv1): Sequential(
      (0): Dropout(p=0.4, inplace=False)
      (1): Conv1d(480, 480, kernel_size=(5,), stride=(1,), padding=(4,), dilation=(2,))
      (2): ReLU(inplace=True)
    )
    (dconv2): Sequential(
      (0): Dropout(p=0.4, inplace=False)
      (1): Conv1d(480, 480, kernel_size=(5,), stride=(1,), padding=(8,), dilation=(4,))
      (2): ReLU(inplace=True)
    )
    (spline_tr): Sequential(
      (0): Dropout(p=0.5, inplace=False)
      (1): BSplineTransformation()
    )
  )
)
█

--------------------------------------------------------------------------------------------------

