…
e, 'CNN_filters': [256], 'CNN_filtersize': [13], 'use_CNNpool': True, 'CNN_poolsize': 4, 'CNN_padding': 0, 'get_CNNout': True, 'get_seqs': True, 'get_pattn': True, 'batch_size': 128, 'num_epochs': 50, 'relativeAttn': False, 'Learnable_relativeAttn': False, 'mixed_attn': False, 'mixed_attn_config': '0.25', 'sqrt_dist': False, 'num_attnlayers': 1, 'entropy_loss': True, 'entropy_reg_value': '0.005', 'residual_connection': True, 'exp_name': 'simulated', 'multiple_linear': False, 'linear_layer_size': 512, 'cnn_attention_block': False, 'sei': True}
300 72
AttentionNet(
  (layer1): Sequential(
    (0): Conv1d(4, 256, kernel_size=(13,), stride=(1,), bias=False)
    (1): BatchNorm1d(256, eps=1e-05, momentum=0.1, affine=True, track_running_stats=True)
    (2): ReLU()
    (3): MaxPool1d(kernel_size=4, stride=4, padding=0, dilation=1, ceil_mode=False)
  )
  (dropout1): Dropout(p=0.2, inplace=False)
  (Q): ModuleList(
    (0): ModuleList(
      (0-3): 4 x Linear(in_features=256, out_features=64, bias=True)
    )
  )
  (K): ModuleList(
    (0): ModuleList(
      (0-3): 4 x Linear(in_features=256, out_features=64, bias=True)
    )
  )
  (V): ModuleList(
    (0): ModuleList(
      (0-3): 4 x Linear(in_features=256, out_features=64, bias=True)
    )
  )
  (RELU): ModuleList(
    (0-3): 4 x ReLU()
  )
  (MultiHeadLinearDropout): ModuleList(
    (0): Dropout(p=0.2, inplace=False)
  )
  (MultiHeadLinear): ModuleList(
    (0): Linear(in_features=256, out_features=512, bias=True)
  )
  (sei_light): Sei_light(
    (lconv1): Sequential(
      (0): Conv1d(72, 480, kernel_size=(9,), stride=(1,), padding=(4,))
      (1): Conv1d(480, 480, kernel_size=(9,), stride=(1,), padding=(4,))
    )
    (conv1): Sequential(
      (0): Conv1d(480, 480, kernel_size=(9,), stride=(1,), padding=(4,))
      (1): ReLU(inplace=True)
      (2): Conv1d(480, 480, kernel_size=(9,), stride=(1,), padding=(4,))
      (3): ReLU(inplace=True)
    )
    (dconv1): Sequential(
      (0): Dropout(p=0.4, inplace=False)
      (1): Conv1d(480, 480, kernel_size=(5,), stride=(1,), padding=(4,), dilation=(2,))
      (2): ReLU(inplace=True)
    )
    (dconv2): Sequential(
      (0): Dropout(p=0.4, inplace=False)
      (1): Conv1d(480, 480, kernel_size=(5,), stride=(1,), padding=(8,), dilation=(4,))
      (2): ReLU(inplace=True)
    )
  )
  (fc3): Linear(in_features=512, out_features=2, bias=True)
  (MHReLU): ModuleList(
    (0): ReLU()
  )
)
Test Loss: 0.120 and AUC: 0.99 

{'input_channels': 4, 'use_embeddings': False, 'embd_window': 5, 'embd_size': 50, 'embd_kmersize': 3, 'num_multiheads': 4, 'singlehead_size': 64, 'multihead_size': 512, 'use_pooling': False, 'pooling_val': 4, 'readout_strategy': 'normalize', 'use_RNN': False, 'RNN_hiddensize':
…
