…
Epoch-46 lr: 0.005 valid_loss: 0.4466956250824279
Epoch :  47
Train Results (Loss and AUC):  0.40849215087115553 0.8524091926813377
Epoch-47 lr: 0.005 valid_loss: 0.700066969428264
Epoch :  48
Train Results (Loss and AUC):  0.40772618720191667 0.8528696469564674
Epoch-48 lr: 0.005 valid_loss: 0.4515771916214849
Epoch :  49
Train Results (Loss and AUC):  0.40684702388670196 0.8535512420172409
Epoch-49 lr: 0.005 valid_loss: 0.45693761292197893
Epoch :  50
Train Results (Loss and AUC):  0.4064138398294033 0.8538812801245353
Epoch-50 lr: 0.005 valid_loss: 0.445004339089416
Sei(
  (lconv1): Sequential(
    (0): Conv1d(4, 480, kernel_size=(9,), stride=(1,), padding=(4,))
    (1): Conv1d(480, 480, kernel_size=(9,), stride=(1,), padding=(4,))
  )
  (conv1): Sequential(
    (0): Conv1d(480, 480, kernel_size=(9,), stride=(1,), padding=(4,))
    (1): ReLU(inplace=True)
    (2): Conv1d(480, 480, kernel_size=(9,), stride=(1,), padding=(4,))
    (3): ReLU(inplace=True)
  )
  (lconv2): Sequential(
    (0): MaxPool1d(kernel_size=4, stride=4, padding=0, dilation=1, ceil_mode=False)
    (1): Dropout(p=0.2, inplace=False)
    (2): Conv1d(480, 640, kernel_size=(9,), stride=(1,), padding=(4,))
    (3): Conv1d(640, 640, kernel_size=(9,), stride=(1,), padding=(4,))
  )
  (conv2): Sequential(
    (0): Dropout(p=0.2, inplace=False)
    (1): Conv1d(640, 640, kernel_size=(9,), stride=(1,), padding=(4,))
    (2): ReLU(inplace=True)
    (3): Conv1d(640, 640, kernel_size=(9,), stride=(1,), padding=(4,))
    (4): ReLU(inplace=True)
  )
  (dconv1): Sequential(
    (0): Dropout(p=0.1, inplace=False)
    (1): Conv1d(640, 640, kernel_size=(5,), stride=(1,), padding=(4,), dilation=(2,))
    (2): ReLU(inplace=True)
  )
  (dconv2): Sequential(
    (0): Dropout(p=0.1, inplace=False)
    (1): Conv1d(640, 640, kernel_size=(5,), stride=(1,), padding=(8,), dilation=(4,))
    (2): ReLU(inplace=True)
  )
  (dconv3): Sequential(
    (0): Dropout(p=0.1, inplace=False)
    (1): Conv1d(640, 640, kernel_size=(5,), stride=(1,), padding=(16,), dilation=(8,))
    (2): ReLU(inplace=True)
  )
  (dconv4): Sequential(
    (0): Dropout(p=0.1, inplace=False)
    (1): Conv1d(640, 640, kernel_size=(5,), stride=(1,), padding=(32,), dilation=(16,))
    (2): ReLU(inplace=True)
  )
  (spline_tr): Sequential(
    (0): Dropout(p=0.5, inplace=False)
    (1): BSplineTransformation()
  )
  (classifier): Sequential(
    (0): Linear(in_features=10240, out_features=36, bias=True)
    (1): ReLU(inplace=True)
    (2): Linear(in_features=36, out_features=36, bias=True)
  )
)
Test Loss: 0.444 and AUC: 0.84 

