…
Train Results (Loss and AUC):  0.5061454467554396 0.732185235453946
Epoch-97 lr: 1.0000000000000004e-08 valid_loss: 0.5095397483015285
Epoch :  98
Train Results (Loss and AUC):  0.5063895690567501 0.7318632088333934
Epoch-98 lr: 1.0000000000000004e-08 valid_loss: 0.5095422543550321
Epoch :  99
Train Results (Loss and AUC):  0.5063381416216335 0.7321188857847666
Epoch-99 lr: 1.0000000000000004e-08 valid_loss: 0.5095524671771716
Epoch :  100
Train Results (Loss and AUC):  0.506408631626091 0.7317829001151765
Epoch-100 lr: 1.0000000000000004e-08 valid_loss: 0.5095409539663736
Sei(
  (lconv1): Sequential(
    (0): Conv1d(4, 480, kernel_size=(9,), stride=(1,), padding=(4,))
    (1): Conv1d(480, 480, kernel_size=(9,), stride=(1,), padding=(4,))
  )
  (conv1): Sequential(
    (0): Conv1d(480, 480, kernel_size=(9,), stride=(1,), padding=(4,))
    (1): ReLU(inplace=True)
    (2): Conv1d(480, 480, kernel_size=(9,), stride=(1,), padding=(4,))
    (3): ReLU(inplace=True)
  )
  (lconv2): Sequential(
    (0): MaxPool1d(kernel_size=4, stride=4, padding=0, dilation=1, ceil_mode=False)
    (1): Dropout(p=0.2, inplace=False)
    (2): Conv1d(480, 640, kernel_size=(9,), stride=(1,), padding=(4,))
    (3): Conv1d(640, 640, kernel_size=(9,), stride=(1,), padding=(4,))
  )
  (conv2): Sequential(
    (0): Dropout(p=0.2, inplace=False)
    (1): Conv1d(640, 640, kernel_size=(9,), stride=(1,), padding=(4,))
    (2): ReLU(inplace=True)
    (3): Conv1d(640, 640, kernel_size=(9,), stride=(1,), padding=(4,))
    (4): ReLU(inplace=True)
  )
  (dconv1): Sequential(
    (0): Dropout(p=0.1, inplace=False)
    (1): Conv1d(640, 640, kernel_size=(5,), stride=(1,), padding=(4,), dilation=(2,))
    (2): ReLU(inplace=True)
  )
  (dconv2): Sequential(
    (0): Dropout(p=0.1, inplace=False)
    (1): Conv1d(640, 640, kernel_size=(5,), stride=(1,), padding=(8,), dilation=(4,))
    (2): ReLU(inplace=True)
  )
  (dconv3): Sequential(
    (0): Dropout(p=0.1, inplace=False)
    (1): Conv1d(640, 640, kernel_size=(5,), stride=(1,), padding=(16,), dilation=(8,))
    (2): ReLU(inplace=True)
  )
  (dconv4): Sequential(
    (0): Dropout(p=0.1, inplace=False)
    (1): Conv1d(640, 640, kernel_size=(5,), stride=(1,), padding=(32,), dilation=(16,))
    (2): ReLU(inplace=True)
  )
  (spline_tr): Sequential(
    (0): Dropout(p=0.5, inplace=False)
    (1): BSplineTransformation()
  )
  (classifier): Sequential(
    (0): Linear(in_features=10240, out_features=36, bias=True)
    (1): ReLU(inplace=True)
    (2): Linear(in_features=36, out_features=36, bias=True)
  )
)
Test Loss: 0.507 and AUC: 0.73 

