…
Epoch :  197
Train Results (Loss and AUC):  0.39805012144525703 0.8604670212802941
Epoch-197 lr: 9.765625e-07 valid_loss: 0.44081755870944456
Epoch :  198
Train Results (Loss and AUC):  0.3975622802446251 0.8607931560427322
Epoch-198 lr: 9.765625e-07 valid_loss: 0.44146448597661764
Epoch :  199
Train Results (Loss and AUC):  0.3971345650012417 0.8609938997514197
Epoch-199 lr: 9.765625e-07 valid_loss: 0.4404656575039519
Epoch :  200
Train Results (Loss and AUC):  0.39785956230685904 0.8604612253959664
Epoch-200 lr: 9.765625e-07 valid_loss: 0.44056679707177926
Sei(
  (lconv1): Sequential(
    (0): Conv1d(4, 480, kernel_size=(9,), stride=(1,), padding=(4,))
    (1): Conv1d(480, 480, kernel_size=(9,), stride=(1,), padding=(4,))
  )
  (conv1): Sequential(
    (0): Conv1d(480, 480, kernel_size=(9,), stride=(1,), padding=(4,))
    (1): ReLU(inplace=True)
    (2): Conv1d(480, 480, kernel_size=(9,), stride=(1,), padding=(4,))
    (3): ReLU(inplace=True)
  )
  (lconv2): Sequential(
    (0): MaxPool1d(kernel_size=4, stride=4, padding=0, dilation=1, ceil_mode=False)
    (1): Dropout(p=0.2, inplace=False)
    (2): Conv1d(480, 640, kernel_size=(9,), stride=(1,), padding=(4,))
    (3): Conv1d(640, 640, kernel_size=(9,), stride=(1,), padding=(4,))
  )
  (conv2): Sequential(
    (0): Dropout(p=0.2, inplace=False)
    (1): Conv1d(640, 640, kernel_size=(9,), stride=(1,), padding=(4,))
    (2): ReLU(inplace=True)
    (3): Conv1d(640, 640, kernel_size=(9,), stride=(1,), padding=(4,))
    (4): ReLU(inplace=True)
  )
  (dconv1): Sequential(
    (0): Dropout(p=0.1, inplace=False)
    (1): Conv1d(640, 640, kernel_size=(5,), stride=(1,), padding=(4,), dilation=(2,))
    (2): ReLU(inplace=True)
  )
  (dconv2): Sequential(
    (0): Dropout(p=0.1, inplace=False)
    (1): Conv1d(640, 640, kernel_size=(5,), stride=(1,), padding=(8,), dilation=(4,))
    (2): ReLU(inplace=True)
  )
  (dconv3): Sequential(
    (0): Dropout(p=0.1, inplace=False)
    (1): Conv1d(640, 640, kernel_size=(5,), stride=(1,), padding=(16,), dilation=(8,))
    (2): ReLU(inplace=True)
  )
  (dconv4): Sequential(
    (0): Dropout(p=0.1, inplace=False)
    (1): Conv1d(640, 640, kernel_size=(5,), stride=(1,), padding=(32,), dilation=(16,))
    (2): ReLU(inplace=True)
  )
  (spline_tr): Sequential(
    (0): Dropout(p=0.5, inplace=False)
    (1): BSplineTransformation()
  )
  (classifier): Sequential(
    (0): Linear(in_features=10240, out_features=36, bias=True)
    (1): ReLU(inplace=True)
    (2): Linear(in_features=36, out_features=36, bias=True)
  )
)
Test Loss: 0.438 and AUC: 0.84 

