…
Train Results (Loss and AUC):  0.4963798486737795 0.7460517216472407
Epoch-97 lr: 0.000125 valid_loss: 0.49544612269896965
Epoch :  98
Train Results (Loss and AUC):  0.49565539507455725 0.7473868771270278
Epoch-98 lr: 0.000125 valid_loss: 0.4952633589893192
Epoch :  99
Train Results (Loss and AUC):  0.496767444059413 0.7460164380181071
Epoch-99 lr: 0.000125 valid_loss: 0.4965198633474705
Epoch :  100
Train Results (Loss and AUC):  0.4958398154025437 0.7471857318004853
Best Validation Loss: 0.493 and AUC: 0.75 

Epoch-100 lr: 0.000125 valid_loss: 0.49302202759883107
Sei(
  (lconv1): Sequential(
    (0): Conv1d(4, 480, kernel_size=(9,), stride=(1,), padding=(4,))
    (1): Conv1d(480, 480, kernel_size=(9,), stride=(1,), padding=(4,))
  )
  (conv1): Sequential(
    (0): Conv1d(480, 480, kernel_size=(9,), stride=(1,), padding=(4,))
    (1): ReLU(inplace=True)
    (2): Conv1d(480, 480, kernel_size=(9,), stride=(1,), padding=(4,))
    (3): ReLU(inplace=True)
  )
  (lconv2): Sequential(
    (0): MaxPool1d(kernel_size=4, stride=4, padding=0, dilation=1, ceil_mode=False)
    (1): Dropout(p=0.2, inplace=False)
    (2): Conv1d(480, 640, kernel_size=(9,), stride=(1,), padding=(4,))
    (3): Conv1d(640, 640, kernel_size=(9,), stride=(1,), padding=(4,))
  )
  (conv2): Sequential(
    (0): Dropout(p=0.2, inplace=False)
    (1): Conv1d(640, 640, kernel_size=(9,), stride=(1,), padding=(4,))
    (2): ReLU(inplace=True)
    (3): Conv1d(640, 640, kernel_size=(9,), stride=(1,), padding=(4,))
    (4): ReLU(inplace=True)
  )
  (dconv1): Sequential(
    (0): Dropout(p=0.2, inplace=False)
    (1): Conv1d(640, 640, kernel_size=(5,), stride=(1,), padding=(4,), dilation=(2,))
    (2): ReLU(inplace=True)
  )
  (dconv2): Sequential(
    (0): Dropout(p=0.2, inplace=False)
    (1): Conv1d(640, 640, kernel_size=(5,), stride=(1,), padding=(8,), dilation=(4,))
    (2): ReLU(inplace=True)
  )
  (dconv3): Sequential(
    (0): Dropout(p=0.2, inplace=False)
    (1): Conv1d(640, 640, kernel_size=(5,), stride=(1,), padding=(16,), dilation=(8,))
    (2): ReLU(inplace=True)
  )
  (spline_tr): Sequential(
    (0): Dropout(p=0.5, inplace=False)
    (1): BSplineTransformation()
  )
  (classifier): Sequential(
    (0): Linear(in_features=10240, out_features=36, bias=True)
    (1): ReLU(inplace=True)
    (2): Linear(in_features=36, out_features=36, bias=True)
  )
)
Test Loss: 0.498 and AUC: 0.74 

